models/dqn_model.pt (torch, 445929 bytes, 8 tensors)

fc1.weight f4 [256, 42]
0	0xbec112f1	-0.37709764
1	0x3e2a81bf	0.16651057
2	0x3ed1376a	0.4086259
3	0x3dd89d49	0.10576875
4	0x3f82ae15	1.0209376
5	0x3f241f05	0.6410983
6	0x3f56d726	0.8392204
7	0xc001e382	-2.029511
8	0x3f65f5cb	0.89828175
9	0x3dd495d5	0.10380141
10	0x3e696990	0.22794175
11	0xbf843451	-1.0328466
12	0xbf4b9481	-0.79523474
13	0xbe2a2488	-0.16615498
14	0xbe1ac210	-0.15113091
15	0x3d070d0e	0.032971434
16	0x3e966722	0.2937556
17	0xbe65fbaf	-0.22459291
18	0x3e8aafd3	0.27087268
19	0x3e51bde2	0.20482591
20	0x3b9003bf	0.004394978
21	0xbe518143	-0.20459466
22	0x3e123548	0.14278138
23	0xbe87e845	-0.26544395
24	0x3fa2a152	1.2705481
25	0xbdad4ab2	-0.084615126
26	0xbe276980	-0.16348839
27	0xbe22d598	-0.15901792
28	0xbd86c7db	-0.06581088
29	0x3e31aa39	0.17350091
30	0x3e8f176b	0.27947554
31	0x3f123a3d	0.57120115
32	0x3e502d35	0.20329745
33	0x3e07f412	0.13276699
34	0x3e65a749	0.22427095
35	0xbe0940ea	-0.13403669
36	0xbe91c24d	-0.28468552
37	0x3ced12e1	0.028939666
38	0x3ec29ee9	0.38011864
39	0xbed64505	-0.41849533
40	0xbeaddd92	-0.33958107
41	0x3d5ffdb5	0.054685313
42	0x3e95a353	0.2922617
43	0x3f84a2f7	1.0362233
44	0x3dc54b8f	0.09633552
45	0x3ebe70c6	0.37195414
46	0x3fac8aa6	1.3479812
47	0x3f0a8898	0.54114676
48	0x3ea791c5	0.327284
49	0x3bbac7b3	0.0057000755
50	0x3f184372	0.59477913
51	0x3e4955d2	0.19661644
52	0x3cb128ad	0.021625841
53	0xc06dfa16	-3.718389
54	0x3ed32fb3	0.4124733
55	0x3ea8d1b0	0.3297248
56	0xbe7782cd	-0.2417099
57	0x3f223855	0.63367206
58	0xbe9719b3	-0.29511794
59	0xbfbcbba3	-1.4744762
60	0xbefa29e4	-0.48860085
61	0x3e6d2a4e	0.23160669
62	0xbe278bac	-0.16361874
63	0x3e082a5e	0.13297412
64	0xbea00ec8	-0.31261277
65	0x3c1ea518	0.009682916
66	0xbf393010	-0.7233896
67	0xbecb9b38	-0.3976686
68	0xbb415b4d	-0.0029503882
69	0xbeefe3db	-0.46853527
70	0xbe7884e3	-0.24269442
71	0xbe6e737c	-0.23286241
72	0xbe9a9233	-0.30189666
73	0x3f04a5ee	0.5181569
74	0xbe691ea7	-0.22765599
75	0x3eb0b8bc	0.3451594
76	0x3e8e11b9	0.27747896
77	0x3e5e257d	0.21693988
78	0x3eca7f43	0.39550218
79	0x3eccf5cf	0.40031287
80	0x3e68eb7f	0.22746085
81	0xbccdd1e0	-0.02512449
82	0x3e0a6537	0.13515173
83	0xbd054fe4	-0.032546893
84	0xbfffc67f	-1.9982451
85	0x3f63a5c2	0.889248
86	0x3eb133fa	0.34609967
87	0x3f32cf4a	0.6984755
88	0x3f5e1c0f	0.86761564
89	0x3f8a3623	1.0797771
90	0x3f23f941	0.64052206
91	0xbf93b585	-1.153977
92	0x3e8413d9	0.25796393
93	0xbe1364b4	-0.14393884
94	0x3e91b7ca	0.28460532
95	0x3f25525d	0.645788
96	0x3f65fd3d	0.89839536
97	0x3eca2361	0.39480117
98	0xbfe156c3	-1.7604603
99	0x3ee1d0c6	0.44104594
100	0x3e6950a0	0.22784662
101	0x3f6aac2f	0.9166898
102	0x3eaa867a	0.33305722
103	0x3e4fd474	0.20295888
104	0x3e1d371a	0.15353051
105	0xbfb7742a	-1.4332325
106	0x3da6d52d	0.08146129
107	0x3e5ad9c6	0.21372136
108	0x3f050dae	0.51974
109	0x3eb46efb	0.3524092
110	0xbe0a82ff	-0.13526534
111	0x3eac124d	0.33607712
112	0xbf9ae44d	-1.2100922
113	0x3c91fd3d	0.017820949
114	0xbcc4b7db	-0.02401345
115	0xbe944fa1	-0.28967002
116	0xbe06acee	-0.13151905
117	0x3e285187	0.1643735
118	0xbc40e4bb	-0.011773284
119	0xbedefcac	-0.43552148
120	0x3d0fe6d1	0.035132233
121	0xbe9a5820	-0.3014536
122	0x3d695b39	0.056971762
123	0x3d802ecc	0.06258926
124	0x3bfcba92	0.0077126706
125	0x3e0d88ca	0.13821712
126	0xbfc96f1a	-1.573703
127	0x3ea79375	0.32729688
128	0x3f3c7ea1	0.7363072
129	0xbdf923f8	-0.121650636
130	0x3e902210	0.28150988
131	0xbe7bc292	-0.24585941
132	0x3dae72d8	0.085179985
133	0x397c88aa	0.00024083504
134	0xbe0128da	-0.1261324
135	0xbe294a14	-0.16532165
136	0x3f6dbe68	0.9286866
137	0x3e7849c5	0.24246891
138	0xbd55cd35	-0.052197654
139	0xbda0ba87	-0.07848077
140	0xbe1526b4	-0.14565545
141	0x3d83e8c7	0.06440883
142	0xbe189beb	-0.14903228
143	0xbf0ca08c	-0.54932475
144	0x3e653776	0.22384438
145	0xbed728d9	-0.42023352
146	0xbe2ac1bb	-0.16675465
147	0x3f01876d	0.5059727
148	0xbd709070	-0.058731496
149	0xbe30f2c5	-0.17280109
150	0xbf8e3025	-1.1108443
151	0xbe1aa871	-0.15103318
152	0x3ea16dd3	0.31529102
153	0x3d64d102	0.055863388
154	0x3e129799	0.14315642
155	0xb9fff46d	-0.00048819502
156	0xbe9e8949	-0.30964115
157	0x3eb77185	0.35828796
158	0xbe5e42e6	-0.21705207
159	0x3f3ba13e	0.7329291
160	0x3ead548e	0.33853573
161	0x3f084e9c	0.5324495
162	0x3ea87454	0.3290125
163	0x3d1b5259	0.03792033
164	0xbf824597	-1.0177487
165	0xbeb1621b	-0.3464516
166	0xbe17ebd9	-0.14836062
167	0x3ec462e6	0.38356704
168	0x3f41392a	0.7547785
169	0xbd160de5	-0.036634345
170	0xbf3a67f1	-0.7281485
171	0xbf3864b3	-0.72028655
172	0x3f73f934	0.9530213
173	0x3f127026	0.57202375
174	0xbe18b796	-0.14913782
175	0xbf48047f	-0.7813186
176	0x3ebbac96	0.3665511
177	0xbeadb67a	-0.3392828
178	0xbea8d5ef	-0.32975718
179	0x3e087f33	0.13329773
180	0x3f3fff00	0.74998474
181	0xbfbaabe9	-1.4583713
182	0x3e8fbe63	0.2807494
183	0x3e758234	0.2397545
184	0x3e06c19d	0.13159795
185	0xbf1f1b8b	-0.621514
186	0x3b9353d6	0.004496078
187	0xbd84384a	-0.06456049
188	0xbf4037f4	-0.7508538
189	0xbe921e52	-0.28538758
190	0x3e146d53	0.14494829
191	0x3ed41ad4	0.41426718
192	0x3eb49628	0.3527081
193	0xbe380b1c	-0.17972988
194	0xbe6df142	-0.23236564
195	0xbf3bbf69	-0.73338944
196	0xbddbb53d	-0.10727928
197	0x3ebfda2f	0.37471148
198	0x3e9c5d2a	0.3053983
199	0x3f328b04	0.6974337
200	0x3f90cbc1	1.1312181
201	0xbdc4375a	-0.0958087
202	0xbeb34a8d	-0.35017815
203	0x3d07b0e9	0.0331277
204	0x3e97574a	0.29558784
205	0xbf17990d	-0.5921791
206	0x3ec82615	0.39091554
207	0xbed55235	-0.4166428
208	0xbe44ad9b	-0.1920685
209	0xbe763b30	-0.24046016
210	0x3f18a2b9	0.59623295
211	0x3d0c82ec	0.034304544
212	0xbfb5990a	-1.4187329
213	0xbfb98963	-1.4495052
214	0x3d781f72	0.060576864
215	0x3f8a44e0	1.0802269
216	0x3f1d7d3a	0.61519206
217	0xbe4b6f7e	-0.1986675
218	0xbf83ea86	-1.0305946
219	0xbf3d699b	-0.73989266
220	0xbf23ed92	-0.6403438
221	0xbba55e9f	-0.00504668
222	0x3fd14748	1.6349878
223	0xbed34137	-0.41260692
224	0x3f3c8963	0.73647135
225	0xbeb3cfdb	-0.3511952
226	0x3eb44150	0.3520608
227	0xbdace23d	-0.08441589
228	0xbf473f7b	-0.7783124
229	0x3e0d66b2	0.13808706
230	0x3f61a73a	0.8814579
231	0xbea6c101	-0.32569125
232	0xbf86555b	-1.0494798
233	0x3fc8c000	1.5683594
234	0xbe4f034c	-0.20216101
235	0x3ed47ffd	0.41503897
236	0x3e5c7fa7	0.2153307
237	0xbc498ca5	-0.012301599
238	0xbebda686	-0.3704111
239	0x3d8a4f85	0.067534484
240	0xbe81f9d8	-0.25385928
241	0xbe50bdee	-0.20384952
242	0xbcc0861a	-0.023501445
243	0x3e89c5b3	0.26908645
244	0xbe6b3681	-0.2297001
245	0xbc89cb64	-0.016820617
246	0x3e05dbdd	0.13072152
247	0x3e4d3894	0.20041114
248	0x3d21e401	0.039524082
249	0xbe8c6977	-0.27424213
250	0xbc26adc4	-0.010173265
251	0x3d06550b	0.032795947
252	0x3f8b02d5	1.0860239
253	0xbd00a87b	-0.031410675
254	0x3e19a7f7	0.1500548
255	0x3d17f87e	0.037102215

fc1.bias f4 [256]
0	0xbebe0c3c	-0.3711871
1	0x3e3fba71	0.18723466
2	0x3d49ea9c	0.049296007
3	0x3ee7f9f1	0.45307878
4	0x3eb9da16	0.362992
5	0xbd97804e	-0.07397519
6	0x3e8eea0d	0.27912942
7	0x3f3338d3	0.7000858
8	0x3e3a8f01	0.18218614
9	0xbe8c44b2	-0.2739616
10	0xbd9361b9	-0.071963735
11	0xbe305593	-0.17220144
12	0x3e8343f6	0.25637788
13	0x3e2799bd	0.1636724
14	0x3e9969aa	0.29963428
15	0xbda1b57f	-0.07895946
16	0xbe7194c4	-0.23591906
17	0x3eb5885a	0.3545559
18	0xbf064ee5	-0.52464134
19	0xbe6d133f	-0.23151873
20	0xbd9c6f12	-0.076383725
21	0x3dc4e9c2	0.09614898
22	0xbd44a0bd	-0.048004854
23	0xbe025f5a	-0.12731686
24	0x3f7b28c5	0.98109084
25	0x3efb41e5	0.4907371
26	0xbdc2c248	-0.095097125
27	0xbec1e40a	-0.37869292
28	0x3f8f5ad2	1.1199591
29	0xbefce15e	-0.49390692
30	0x3e374423	0.17897086
31	0xbe1d38f1	-0.15353753
32	0xbeaf5cf3	-0.34250602
33	0x3ef403a7	0.47659037
34	0xbf31ddad	-0.69478875
35	0x3f909e93	1.1298393
36	0x3ea6e7df	0.3259878
37	0x3e900e4f	0.28135917
38	0xbdb2eb47	-0.08736282
39	0xbebe358d	-0.3715023
40	0x3f4e6f10	0.8063822
41	0xbeb76bce	-0.35824436
42	0xbebf727b	-0.3739203
43	0xbedfce4b	-0.43712077
44	0xbf040899	-0.5157562
45	0xbe103cf5	-0.14085753
46	0x3f3688c5	0.71302444
47	0xbd9e7d2b	-0.07738718
48	0xbe9a13c5	-0.30093208
49	0x3dcfaaad	0.10139976
50	0xbdad8019	-0.08471698
51	0xbe7185d9	-0.23586215
52	0x3dabe7f8	0.08393854
53	0x3e7e3e0c	0.24828357
54	0xbdd3ed52	-0.10348
55	0xbeace0df	-0.33765313
56	0xbe957a57	-0.291949
57	0xbe985163	-0.29749593
58	0xbebde1b1	-0.3708625
59	0x3e24099d	0.16019292
60	0x3ee12e3d	0.4398059
61	0xbf001846	-0.5003704
62	0xbead70f9	-0.33875254
63	0xbe004abb	-0.12528507
64	0xbe8baeb1	-0.27281716
65	0x3e535934	0.20639497
66	0x3fa48a55	1.2854716
67	0x3f420263	0.7578489
68	0x3e5bb859	0.21457042
69	0xbef6806b	-0.4814485
70	0x3f3a0acf	0.7267274
71	0x3f73a3da	0.9517189
72	0x3f549db2	0.83053124
73	0xbeae8db8	-0.34092498
74	0x3e8f18a0	0.27948475
75	0xbe0126b5	-0.12612422
76	0x3cb9a51b	0.022661736
77	0x3e174332	0.14771727
78	0xbed2521f	-0.41078278
79	0x3f78c547	0.9717602
80	0xbcb47001	-0.022026064
81	0xbe8baef4	-0.27281916
82	0xbdcaa08e	-0.098939046
83	0x3ece38ae	0.40277618
84	0xbe063e6e	-0.13109753
85	0x3e94dd7d	0.29075232
86	0x3f0ebdd7	0.5575842
87	0x3ca2b414	0.019861259
88	0x3f75a43f	0.95953745
89	0xbef3ebf9	-0.4764097
90	0x3dcb8274	0.09936991
91	0xbe29b57f	-0.16573142
92	0xbe31dba7	-0.17368947
93	0x3e26eca1	0.16301204
94	0xbe988165	-0.2978622
95	0xbe1f4321	-0.15552951
96	0xbde92a69	-0.11385042
97	0x3e52a33d	0.20570083
98	0xbe0918c3	-0.13388352
99	0xbe8774b5	-0.26456228
100	0xbe722aa8	-0.23649085
101	0x3e2e56f8	0.17025363
102	0x3f080dc7	0.5314602
103	0xbf5ad249	-0.8547712
104	0xbd03fb6e	-0.032222204
105	0xbe976437	-0.29568645
106	0x3df05144	0.1173425
107	0xbdfc7b18	-0.12328166
108	0x3cb5d991	0.02219847
109	0xbe4d1111	-0.20026042
110	0xbe60783b	-0.21920864
111	0xbea36d92	-0.31919533
112	0xbe00852b	-0.125508
113	0xbca5d01c	-0.020240836
114	0xbe49ac7a	-0.19694701
115	0x3e21718f	0.15765975
116	0xbec6a4c2	-0.38797575
117	0x3f9b1a54	1.211741
118	0xbd19e24d	-0.037569333
119	0x3e50c490	0.20387483
120	0x3efff056	0.4998805
121	0xbe6c4bc8	-0.23075783
122	0x3ceae119	0.028671788
123	0xbe274d3a	-0.16338053
124	0xbe7bad91	-0.24577929
125	0xbe6244c3	-0.22096543
126	0xbe9bbba4	-0.30416596
127	0x3ed2a02f	0.41137835
128	0xbf088896	-0.53333414
129	0x3e470a54	0.19437534
130	0xbd83916d	-0.06424222
131	0x3edd6e36	0.43248147
132	0x3ea09e21	0.31370643
133	0xbdd60463	-0.104500555
134	0xbea1e3d3	-0.3161913
135	0xbe601d01	-0.21886064
136	0x3ea59d66	0.32346648
137	0x3f442844	0.7662394
138	0x3e3769cc	0.17911452
139	0x3b608375	0.0034258042
140	0xbf367c36	-0.7128328
141	0xbee81126	-0.45325583
142	0xbe848147	-0.2587988
143	0xbeb433a8	-0.3519566
144	0xbe7d74aa	-0.24751535
145	0xbf0bebfe	-0.5465697
146	0x3eca6d56	0.39536542
147	0xbed3ec80	-0.41391373
148	0xbda0148d	-0.0781642
149	0x3dd27329	0.10275871
150	0x3db13750	0.08653128
151	0x3eaf8619	0.34281996
152	0xbf1bb0d2	-0.6081668
153	0x3e919bb8	0.28439116
154	0x3f244166	0.6416229
155	0xbe1418e6	-0.14462623
156	0x3e585242	0.21125129
157	0x3df6b66b	0.12046512
158	0xbe97886b	-0.29596266
159	0x3f684e81	0.9074479
160	0xbe6f50bb	-0.2337064
161	0x3e64fb20	0.22361422
162	0xbe82c366	-0.25539702
163	0x3ebaec98	0.36508632
164	0xbf23f265	-0.6404174
165	0xbbf37c9d	-0.0074306265
166	0x3df50735	0.11964265
167	0x3eb9b15b	0.36268124
168	0xbcb3d616	-0.02195267
169	0x3f41c38f	0.75689024
170	0x3d81c56e	0.06336485
171	0xbead815b	-0.33887753
172	0xbe9855dd	-0.29753008
173	0xbee40db7	-0.44541714
174	0xbed40a77	-0.41414234
175	0xbd34289f	-0.04398405
176	0x3e859183	0.2608758
177	0xbaebb87a	-0.0017984055
178	0x3f2406cd	0.6407288
179	0x3fc35373	1.5259842
180	0x3ed2a77b	0.41143402
181	0xbd87cb75	-0.06630603
182	0xbf440015	-0.76562625
183	0x3f87a3b1	1.059683
184	0xbd1287e7	-0.035774138
185	0x3ec28a7e	0.37996286
186	0x3e98fe5e	0.29881567
187	0xbf2ad1b5	-0.6672624
188	0x3e1dc5d5	0.15407498
189	0x3e5f3e0f	0.21801017
190	0x3f4f76d7	0.8104071
191	0x3f7b84fd	0.982498
192	0xbe46d84f	-0.19418453
193	0xbf04226f	-0.5161504
194	0x3f079510	0.52961826
195	0xbd343a44	-0.04400088
196	0xbef5b20c	-0.479874
197	0x3e32df14	0.1746791
198	0xbeb2bae8	-0.34908223
199	0x3f483d58	0.78218603
200	0x3e6f0010	0.23339868
201	0x3dbbc48c	0.09168348
202	0xbecc97b9	-0.39959505
203	0x3f5223b9	0.8208576
204	0x3e71c16a	0.23608938
205	0xbe83c10d	-0.25733224
206	0x3ea34c62	0.31894213
207	0xbf01c4fb	-0.50691193
208	0xbbe98651	-0.0071266075
209	0xbf25bf60	-0.6474514
210	0xbc417ab9	-0.0118090445
211	0xbe59279d	-0.21206518
212	0xbdebe11a	-0.11517544
213	0x3f8e0c1c	1.1097445
214	0x3f25cb54	0.6476338
215	0x3f15ad06	0.5846714
216	0x3f0d578d	0.55211717
217	0xbe88eed3	-0.26744708
218	0xbe55d4ec	-0.20882004
219	0xbd58bd36	-0.05291482
220	0x3e890df5	0.2676846
221	0xbe4942fe	-0.19654462
222	0xbe8bbe54	-0.27293646
223	0xbeff58e0	-0.49872494
224	0xbe5f14e9	-0.2178532
225	0x3e942899	0.28937224
226	0xbedc6daa	-0.43052417
227	0xbed91e67	-0.42406008
228	0x3f911342	1.1334002
229	0x3ed036f3	0.40666923
230	0xbe02b0a5	-0.12762697
231	0xbf20f28c	-0.628701
232	0x3bcedeae	0.0063131666
233	0xbf470e32	-0.77756035
234	0x3cda3efe	0.026641365
235	0x3da32580	0.07966137
236	0xbe9745e9	-0.29545525
237	0xbe7c7cda	-0.24657002
238	0x3dad635c	0.08466217
239	0xbf0bd6ae	-0.5462445
240	0x3d5ec6e3	0.054388892
241	0xbe9f39ae	-0.31098694
242	0x3dc17a95	0.09447209
243	0x3ea236b2	0.31682354
244	0xbf03e77e	-0.51525104
245	0x3e9a6fec	0.30163515
246	0x3f19d6ad	0.60093194
247	0xbe316089	-0.17321981
248	0xbe801b96	-0.25021046
249	0x3f9a0353	1.2032264
250	0xbec60f41	-0.38683513
251	0x3f767f57	0.96288055
252	0x3d4e2055	0.050323803
253	0xbe7358a6	-0.23764285
254	0xbede4939	-0.4341524
255	0xbeba0c15	-0.36337343

fc2.weight f4 [256, 256]
0	0x3e9148df	0.2837591
1	0xbdc1e405	-0.094673194
2	0x3c92c2bb	0.01791512
3	0x3e68f665	0.22750242
4	0x3ebd367b	0.36955628
5	0xbe1dc967	-0.1540886
6	0x3e772f46	0.24139127
7	0x3e5520e7	0.20813332
8	0xbea5e56b	-0.32401595
9	0xbf2d6cee	-0.6774434
10	0x3d28ad3e	0.04118084
11	0x3f01c9d9	0.5069862
12	0x3ed11624	0.40837204
13	0x3cef096a	0.029179294
14	0xbe0a69fc	-0.13516992
15	0xbf06ddab	-0.5268199
16	0xbe816397	-0.25271294
17	0xbed12ce1	-0.40854552
18	0x3d567242	0.05235506
19	0xbb857418	-0.0040726773
20	0x3de9933c	0.11405036
21	0xbef2331e	-0.47304624
22	0xbe5c8352	-0.2153447
23	0xbf99464c	-1.1974578
24	0x3ed906ec	0.42388093
25	0xbe33bc1b	-0.17552225
26	0x3e184606	0.14870462
27	0xbe5aa33b	-0.2135133
28	0x3e1397fa	0.14413443
29	0x3f3a1bdd	0.72698766
30	0x3e9e7b49	0.30953434
31	0x3f199822	0.5999776
32	0x3e8f8953	0.28034458
33	0x3c34eb82	0.011042478
34	0xbe4311cb	-0.19049756
35	0xbeabf14e	-0.33582538
36	0xbf24a7c9	-0.6431852
37	0x3f0f3c22	0.5595113
38	0xbce9c4a9	-0.028536158
39	0x3f75b00b	0.95971745
40	0x3d98ee32	0.07467307
41	0xbf66b0b5	-0.90113384
42	0xbf4edc4a	-0.80804884
43	0xbdbcc1c6	-0.09216647
44	0x3f09b86a	0.5379702
45	0xbf9f7758	-1.2458296
46	0x3e82c4b4	0.25540698
47	0x3e1a8022	0.15087941
48	0xbe437a03	-0.19089513
49	0xbf22b9ee	-0.63564956
50	0xbeac127e	-0.33607858
51	0x3f67d5d3	0.90560645
52	0x3ccbc9e0	0.024876535
53	0xbea79384	-0.32729733
54	0xbd15906d	-0.03651469
55	0x3eef737b	0.46767792
56	0x3f0fd017	0.56176895
57	0x3dcb2fe6	0.09921245
58	0xbec82109	-0.39087704
59	0x3da1b8d0	0.07896578
60	0x3e41ff4e	0.18945047
61	0x3d8d900a	0.06912239
62	0x3e131485	0.14363296
63	0x3eeb0e76	0.4590947
64	0x3ea55682	0.32292563
65	0xbef74d67	-0.4830124
66	0x3e2b756c	0.16744012
67	0xbe3243e7	-0.17408715
68	0x3e6dc99a	0.23221436
69	0x3e9702af	0.29494235
70	0xbe335892	-0.17514256
71	0x3e8a1abd	0.26973525
72	0x3e8bd321	0.27309516
73	0xbf3fd920	-0.7494068
74	0x3cf776d8	0.030208036
75	0xbfc9fd7c	-1.5780482
76	0x3f06f535	0.52717906
77	0xbe5706e7	-0.20998727
78	0x3e1e5d44	0.15465266
79	0x3e264b56	0.16239676
80	0xbf029d30	-0.510211
81	0xbf039eaf	-0.51414007
82	0x3f881e49	1.0634242
83	0xbbfdb284	-0.007742228
84	0xbf084c0d	-0.53241044
85	0xbc927a00	-0.01788044
86	0xbf120d46	-0.57051504
87	0x3df6daa2	0.1205342
88	0x3e07ca05	0.13260658
89	0xbe046ad5	-0.12931378
90	0x3ed78e22	0.42100626
91	0xbe9673ce	-0.29385227
92	0x3b754140	0.0037422925
93	0x400fecdb	2.2488315
94	0x3f37b93d	0.71767026
95	0xbd96b14b	-0.07358035
96	0x3efe169a	0.4962662
97	0x3e082b32	0.13297728
98	0x3e199fdf	0.15002392
99	0xbde16e6d	-0.1100739
100	0xbec28558	-0.37992358
101	0x3ea1d243	0.3160573
102	0x3ed63f2c	0.4184507
103	0xbef10060	-0.470706
104	0xbe929404	-0.28628552
105	0x3f437a4e	0.763585
106	0x3eac8d95	0.3370177
107	0xbf0c4302	-0.54789746
108	0xbd5b9896	-0.053612314
109	0xbe0d4dfc	-0.1379928
110	0xbf59eda3	-0.8512823
111	0x3dff681e	0.12471031
112	0xc0053473	-2.0813262
113	0xbeb8a8cb	-0.3606628
114	0xbef2cfe8	-0.47424245
115	0xbd83dc95	-0.06438557
116	0xbe7b9f44	-0.24572474
117	0x3f6d7ab7	0.92765373
118	0x3d6aeef7	0.0573568
119	0xbe1601ca	-0.1464912
120	0x3e0f3b2f	0.1398742
121	0xbee9ebef	-0.45687816
122	0xbe8fb03d	-0.28064147
123	0x400ca649	2.1976492
124	0x3e27419a	0.16333619
125	0x3bb00d6d	0.005372694
126	0x3f4af7c0	0.79284286
127	0xbe4597eb	-0.19296233
128	0xbf00b3a6	-0.5027412
129	0x3dd02cb1	0.10164774
130	0x3e04de76	0.12975487
131	0x3f0104f5	0.5039819
132	0x3f846a94	1.0345025
133	0x3edd4c66	0.4322235
134	0xbf391221	-0.7229329
135	0x3d22c6f3	0.039740514
136	0x3f46d3be	0.7766684
137	0x3e1c46ea	0.15261427
138	0xbecf6bb1	-0.4051185
139	0x3ec2ea05	0.38069168
140	0x3e3419e4	0.17588001
141	0xbd6163b2	-0.055026717
142	0xbf7b2391	-0.98101145
143	0xbf5f7661	-0.87290007
144	0xbebf1b18	-0.37325358
145	0xbd96fce7	-0.07372456
146	0x3d3af82e	0.04564684
147	0xbe03e006	-0.12878427
148	0xbf1fd636	-0.62436235
149	0x3d2c7702	0.042105682
150	0xbed70eb5	-0.42003408
151	0x3eea16b3	0.45720443
152	0x3e45e799	0.19326629
153	0x3f0b130f	0.54325956
154	0x3d9d83f3	0.07691183
155	0x3e2a67c1	0.16641141
156	0xbe93f779	-0.28899744
157	0xbd800b5a	-0.06252165
158	0xbdd0d5ce	-0.1019703
159	0x3e9403f7	0.28909275
160	0x3d93b0ed	0.0721148
161	0x3eb1d7e5	0.34735027
162	0x3cecea95	0.028920451
163	0x3f0db013	0.5534679
164	0xbe1d3802	-0.15353397
165	0xbe29c616	-0.1657947
166	0xbf3f601e	-0.7475604
167	0xbdef78fc	-0.11692998
168	0xbec6228e	-0.38698238
169	0x3d4a19b7	0.04934093
170	0xbf5860eb	-0.84522885
171	0x3fbf8d09	1.4964916
172	0xbf5ec4db	-0.8701913
173	0x3f76a353	0.96342963
174	0xbe888ff8	-0.2667234
175	0x3ee46b1f	0.44612977
176	0x3e314883	0.17312817
177	0xbc6c9fb0	-0.014442369
178	0x3f0c475c	0.54796386
179	0x3f85983d	1.0437084
180	0x3d894387	0.06702333
181	0x3f60113a	0.87526286
182	0xbe9760c6	-0.2956602
183	0xbd99af1e	-0.07504104
184	0xbe710497	-0.23536907
185	0xbe3e7d64	-0.1860252
186	0x3f23efae	0.640376
187	0x3e26d282	0.1629124
188	0xbf116806	-0.5679935
189	0xbfbe00e2	-1.484402
190	0x3e26cf7f	0.16290091
191	0x3e95c0bf	0.29248616
192	0xbec2861b	-0.3799294
193	0xbf3b2c42	-0.7311441
194	0xbdf293cc	-0.11844596
195	0x3d78fbaa	0.06078688
196	0xbf8604bf	-1.0470198
197	0x3e5f69ee	0.21817753
198	0xbbf1708a	-0.007368152
199	0xbd1afb31	-0.03783721
200	0xbe5a383d	-0.21310516
201	0x3f0bfe10	0.54684544
202	0x3f55aaa7	0.8346352
203	0x3ca070e9	0.01958509
204	0x3f9947c0	1.1975021
205	0x3c9a8d52	0.018866215
206	0x3f3208dd	0.69544774
207	0xbf1ab0e6	-0.60426176
208	0xbf217192	-0.6306392
209	0xbeee6ddc	-0.4656819
210	0x3e745e3e	0.23864076
211	0x3f5c8c27	0.86151356
212	0xbe945594	-0.2897154
213	0xbc87ba15	-0.016568223
214	0xbde400c9	-0.11132962
215	0x3f47b879	0.7801586
216	0xbeca69b3	-0.39533767
217	0xbe21da33	-0.15805893
218	0xbe85c12f	-0.2612395
219	0x3e4f54ed	0.2024724
220	0xbe7e67c5	-0.24844272
221	0xbe08e097	-0.13366924
222	0x3e9dbd6e	0.30808586
223	0x3fed166e	1.852247
224	0xbe82f3cd	-0.2557663
225	0x3cae2220	0.021256506
226	0xbe2f35b0	-0.17110324
227	0x3d6e0124	0.058106557
228	0x3ebfd0bb	0.37463936
229	0x3eabc513	0.33548793
230	0xbddfc39c	-0.109259814
231	0xbf21521b	-0.6301591
232	0x3e1dc9d1	0.15409018
233	0xbe6d9279	-0.23200406
234	0x3e554974	0.20828801
235	0xbd760e76	-0.060072385
236	0x3dee74aa	0.11643346
237	0xbd52ed75	-0.051495988
238	0xbf2cfcb5	-0.675731
239	0xbeb903b5	-0.3613564
240	0x3f4208b4	0.7579453
241	0x3c49000f	0.01226808
242	0x3deb977b	0.11503502
243	0xbd961952	-0.07329048
244	0x3dbf2e85	0.09335045
245	0xbe90c6ea	-0.2827676
246	0x3f11f4f7	0.5701441
247	0xbf4a966a	-0.79135764
248	0xbf295d5a	-0.6615807
249	0x3cf5a72b	0.029986938
250	0x3f18cad6	0.59684503
251	0x3f1fd4ad	0.6243389
252	0x3dcc8cb6	0.09987776
253	0x3f07faca	0.5311705
254	0xbf9bb984	-1.216599
255	0xbf34f8e7	-0.70692295

fc2.bias f4 [256]
0	0x3f642656	0.89120996
1	0xbecf0036	-0.40429848
2	0xbdeec0d9	-0.116578765
3	0xbde2a56f	-0.1106671
4	0xbed0931a	-0.4073723
5	0xbec6c1ac	-0.38819635
6	0xbe6a7f02	-0.22900012
7	0x3ea4f945	0.32221428
8	0xbe8870d3	-0.26648578
9	0xbde2b2fe	-0.11069296
10	0xbe77ab32	-0.241864
11	0xbde5f65b	-0.11228629
12	0x3edfccef	0.4371104
13	0xbd8d7bdf	-0.06908392
14	0xbdf92e75	-0.12167064
15	0x3f707211	0.9392405
16	0xbea8198d	-0.32831994
17	0x3f32d5db	0.6985757
18	0xbe32e805	-0.17471321
19	0xbd2a7707	-0.04161742
20	0xbe8553e9	-0.2604058
21	0xbeec098a	-0.46101028
22	0xbeb3a2ac	-0.35085046
23	0x3ea47971	0.32123902
24	0xbe49512e	-0.19659874
25	0xbe06527e	-0.13117406
26	0x3f80a44b	1.0050138
27	0xbe1a8bf6	-0.15092453
28	0x3e1cfbb9	0.153304
29	0xbf2cd52c	-0.67512774
30	0xbdc7bec5	-0.09753183
31	0x3f100686	0.56259954
32	0xbd125d21	-0.035733346
33	0x3f21ccb6	0.6320299
34	0xbe6e36fc	-0.23263162
35	0xbecfc20d	-0.40577736
36	0x3e2db1a6	0.16962299
37	0x3f07f38a	0.53105986
38	0xbeacc95a	-0.3374737
39	0x3f50f2f3	0.8162071
40	0x3f3b0362	0.73052037
41	0x3eb8bb47	0.3608038
42	0xbefd88bd	-0.49518386
43	0xbe56fd91	-0.20995165
44	0xbe92a76a	-0.28643352
45	0xbe4cdddf	-0.20006512
46	0x3f5a6f0f	0.8532571
47	0xbe5e3d63	-0.21703105
48	0xbd7e2fb7	-0.062057223
49	0xbdd18c44	-0.10231832
50	0xbf22d07d	-0.6359938
51	0xbf691a16	-0.9105543
52	0xbe56017a	-0.20899001
53	0xbe848187	-0.25880072
54	0xbdb38edf	-0.08767485
55	0x3d107282	0.035265453
56	0x3f0389ba	0.5138203
57	0xbe713b1e	-0.23557708
58	0xbe955c34	-0.29171908
59	0x3ebba994	0.36652815
60	0xbdd0b03f	-0.10189866
61	0x3e1cba3f	0.15305422
62	0xbe2e77b2	-0.17037848
63	0xbe52ac7a	-0.20573607
64	0x3e110f6c	0.14166039
65	0xbe961726	-0.29314536
66	0xbe21e457	-0.15809761
67	0xbef71b94	-0.48263228
68	0xbe1f56c9	-0.1556045
69	0x3eebf644	0.46086323
70	0xbde4d625	-0.11173657
71	0xbd53597e	-0.05159902
72	0xbe958cda	-0.29209024
73	0x3fc65018	1.5493193
74	0x3cc5e5ee	0.02415749
75	0xbcbf4931	-0.02335033
76	0x3f282cb2	0.656932
77	0x3e390496	0.18068156
78	0xbea01502	-0.31266028
79	0xbea02120	-0.31275272
80	0x3ee86b9c	0.453946
81	0xbdb116f2	-0.086469546
82	0x3e241720	0.16024446
83	0x3fc4e255	1.5381571
84	0x3e785f5a	0.24255124
85	0x3ee30ca0	0.4434557
86	0x3f02f330	0.51152325
87	0x3eeae45b	0.45877346
88	0x3f01a5a3	0.50643367
89	0xbe464f68	-0.19366229
90	0xbc117e57	-0.008880219
91	0xbd2f6748	-0.042823106
92	0xbe9c98f1	-0.30585435
93	0xbf980179	-1.187545
94	0x3e89ed7f	0.26939008
95	0x3dc6efe4	0.09713724
96	0x3d2d0365	0.042239565
97	0xbe295a55	-0.16538365
98	0xbe8bef25	-0.2733089
99	0xbf05333e	-0.52031314
100	0xbdf54d65	-0.119776525
101	0x3e78eac8	0.24308312
102	0x3ee8db4a	0.45479804
103	0x3f3eaae2	0.74479496
104	0xbec1e01c	-0.37866294
105	0xbeb93276	-0.3617131
106	0xbeedc3e3	-0.46438512
107	0xbe4819f6	-0.19541153
108	0x3f31d3e1	0.69463927
109	0xbe57455f	-0.21022557
110	0x3d889742	0.06669475
111	0xbdaf361d	-0.08555243
112	0x3ac5b4fe	0.0015083847
113	0xbe9ccb9e	-0.30624098
114	0x3ef26243	0.47340593
115	0x3eb7eedc	0.35924423
116	0xbdfe0fb4	-0.12405339
117	0x3f1dbd5a	0.6161705
118	0xbe7f847b	-0.24952881
119	0x3ec702ce	0.38869327
120	0xbf08ecdd	-0.53486425
121	0xbe36a037	-0.17834555
122	0xbda142f5	-0.07874099
123	0xbe7159b5	-0.23569377
124	0x3f6aa2d4	0.91654706
125	0xbecc9e33	-0.39964446
126	0xbe2bdf49	-0.16784395
127	0xbf34bef4	-0.7060387
128	0xbda7fb21	-0.08202196
129	0x3e0272f1	0.12739159
130	0xbeab5cef	-0.3346934
131	0xbe1c1d5a	-0.15245572
132	0xbe9a4cd8	-0.30136752
133	0xbeb6c0a0	-0.35693836
134	0xbe8165d9	-0.25273016
135	0x3d05c650	0.03265983
136	0xbee6adea	-0.4505456
137	0xbe23d71b	-0.16000025
138	0xbe29d8a4	-0.16586548
139	0xbe72b02d	-0.23700018
140	0xbe88891c	-0.26667106
141	0x3f461c3f	0.7738685
142	0xbe4148c6	-0.18875417
143	0xbdd23cfd	-0.10265539
144	0xbe8120a7	-0.25220224
145	0xbe3b11f9	-0.18268575
146	0x3eb228fd	0.34796897
147	0xbd939faf	-0.072081916
148	0xbe9a577b	-0.30144867
149	0x3f53cee7	0.8273758
150	0xbe1ff913	-0.15622358
151	0x3dc76307	0.09735685
152	0xbdc3a838	-0.095535696
153	0xbe201f54	-0.1563695
154	0x3eb03775	0.3441731
155	0x3f3a3ccf	0.72749037
156	0x3feb6372	1.8389723
157	0xbd011de1	-0.031522635
158	0xbee21dd2	-0.44163376
159	0xbd5305a3	-0.051519047
160	0xbeab5d9e	-0.33469862
161	0x3eb8bcea	0.3608163
162	0xbd9e19ba	-0.07719751
163	0xbe66b835	-0.22531207
164	0x3f006da3	0.5016729
165	0xbde9ce52	-0.114163056
166	0x40364c31	2.8484004
167	0xbed0153c	-0.406412
168	0xbe2c3cc9	-0.16820063
169	0xbdd74cd3	-0.105127
170	0xbf44a77e	-0.7681807
171	0xbe3aa410	-0.18226647
172	0xbec666c2	-0.38750273
173	0xbdfb157a	-0.12259956
174	0x3ee3dd9d	0.44505015
175	0xbec3b42f	-0.38223407
176	0xbe968aca	-0.29402763
177	0xbe9e3211	-0.30897573
178	0xbe8e41b7	-0.2778451
179	0xbd7c633c	-0.061618075
180	0x3f108e2b	0.5646693
181	0xbe15adbe	-0.14617059
182	0xbecbeff4	-0.39831507
183	0x3f009e20	0.5024128
184	0x4011ec06	2.2800307
185	0xbe262a1b	-0.16227
186	0xbf84282c	-1.032476
187	0x3f1a863e	0.6036109
188	0xbd9d4f69	-0.07681162
189	0x3f201d3a	0.62544596
190	0xbd34bf11	-0.044127528
191	0xbe5e3a67	-0.21701966
192	0xbd118f4d	-0.035537053
193	0xbe41f369	-0.1894051
194	0x3ee55e9a	0.44798738
195	0x3e5ef96c	0.21774834
196	0xbe8ade93	-0.27122936
197	0x3b48db4b	0.0030648287
198	0xbe4f6332	-0.20252684
199	0xbe9f93e8	-0.3116753
200	0xbe654d9b	-0.22392885
201	0x3c6e7d04	0.014556173
202	0x3f206a68	0.62662363
203	0x3cd25e4c	0.02567973
204	0xbdb367d0	-0.08760035
205	0x3da450d0	0.08023226
206	0xbea40ad1	-0.32039502
207	0xbe1c615d	-0.15271516
208	0xbf34343a	-0.7039219
209	0x3ee036d8	0.43791842
210	0xbdce6ea9	-0.100797005
211	0xbe81610d	-0.25269356
212	0xbe31a3b5	-0.17347606
213	0xbe25fc9e	-0.16209647
214	0xbea3ed3a	-0.32016927
215	0xbe670f15	-0.22564347
216	0x3f1d0e26	0.61349714
217	0xbf07e53d	-0.53084165
218	0xbdfdced8	-0.12392968
219	0x3aa37654	0.0012471178
220	0xbe69506d	-0.22784586
221	0xbe416c1f	-0.18888901
222	0x3f099db6	0.5375627
223	0xbf30bda7	-0.69039387
224	0x3f7226c1	0.94590384
225	0xbf3097f3	-0.68981856
226	0xbddaa0d7	-0.10675209
227	0x3efc1087	0.4923136
228	0xbd3f673b	-0.046729308
229	0x3f467f02	0.7753755
230	0xbe6c42a6	-0.230723
231	0xbe62886c	-0.22122353
232	0x3ed71cfd	0.42014304
233	0xbda7dcdd	-0.08196423
234	0xbe1ef0f6	-0.15521607
235	0xbe685384	-0.22688109
236	0xbd995f12	-0.07488836
237	0x3f0c1380	0.54717255
238	0xbe713d78	-0.23558605
239	0xbee2a727	-0.44268152
240	0x3ebac2ec	0.3647684
241	0xbe87e79c	-0.2654389
242	0xbe190528	-0.14943373
243	0x3fc76f6b	1.5580877
244	0xbe448444	-0.1919108
245	0xbe2a2afb	-0.16617958
246	0xbe5a025f	-0.21289967
247	0xbdb33773	-0.087508105
248	0x3f3d0913	0.7384197
249	0xbe46444d	-0.19361992
250	0xbd1090e1	-0.035294417
251	0x3fd5eb55	1.6712443
252	0xbe802810	-0.25030565
253	0x3e0f5f06	0.14001092
254	0xbe948aa5	-0.29012027
255	0x3e9e24fd	0.30887595

fc3.weight f4 [128, 256]
0	0x3fa3a806	1.2785652
1	0x3f2e9c0a	0.68206847
2	0xc008205e	-2.1269755
3	0x3f98def3	1.1943039
4	0xc0751fa2	-3.8300557
5	0xbfb41ec9	-1.4071895
6	0xc03088bd	-2.7583458
7	0x3ffad4da	1.9596207
8	0xbf2767f2	-0.6539298
9	0xbf3417e4	-0.70348954
10	0xbf33652f	-0.7007627
11	0xc0463d6e	-3.0974994
12	0x3f6ac409	0.91705376
13	0xbfdbc0fd	-1.716827
14	0x3fc0b485	1.505509
15	0x3de45d29	0.111505814
16	0x40020d78	2.032072
17	0x3e4da734	0.20083314
18	0x3fc4ed15	1.5384852
19	0xc0449115	-3.071355
20	0xbf7f278f	-0.99669737
21	0x40273e74	2.6131868
22	0xc01a050f	-2.4065588
23	0x3fcb9127	1.5903672
24	0xbed4cd1a	-0.4156273
25	0x3fbccd05	1.4750067
26	0x3e6a8c8b	0.22905175
27	0xbfd26049	-1.6435634
28	0x3fc68421	1.5509073
29	0x4000cd7b	2.0125415
30	0xc00bfdb2	-2.1873593
31	0x3fb5daab	1.4207357
32	0xc00ab204	-2.1671152
33	0x3f47a9c1	0.779934
34	0x400509ae	2.0787158
35	0x401e67a4	2.4750757
36	0x3ec08133	0.3759857
37	0x3fa4fecf	1.2890261
38	0xc02a1e1a	-2.6580873
39	0x3fb24699	1.3927795
40	0xbe5530bf	-0.20819376
41	0x3f989937	1.1921757
42	0x3f283ae6	0.6571487
43	0xc0325cd8	-2.7869167
44	0x3f675b6c	0.90373874
45	0x4047eb9f	3.1237562
46	0x3f18d52a	0.5970026
47	0x3f66a006	0.90087926
48	0xbec9c2f0	-0.39406538
49	0xc0320a9a	-2.781897
50	0x3fd192c7	1.6372918
51	0x3f1d5938	0.6146426
52	0xbfaabc53	-1.3338722
53	0xbfee77ef	-1.8630351
54	0x3ede0432	0.43362576
55	0x40037520	2.0540237
56	0x3f90d034	1.1313539
57	0xbff299fd	-1.8953243
58	0x3f6599c9	0.8968778
59	0x3fb1c2b0	1.3887539
60	0xbfd3ec0e	-1.6556413
61	0x3fa7c887	1.3108071
62	0xc02000d2	-2.50005
63	0xbf8b6f89	-1.0893413
64	0x3fda12e1	1.7037011
65	0x3f6ff590	0.93734074
66	0x3fffee3b	1.9994577
67	0x4044ebc9	3.0768912
68	0xc02cfdef	-2.7029989
69	0x3fb997cb	1.4499449
70	0xc0109251	-2.2589304
71	0xbfc0595d	-1.5027272
72	0xbfb64086	-1.4238441
73	0x3e08c0f7	0.1335486
74	0x40358f2a	2.836863
75	0x3f9b2062	1.2119257
76	0x3f58377e	0.84459674
77	0x3fc0f30f	1.5074176
78	0x4028b294	2.6358995
79	0xbfa510fe	-1.2895811
80	0x3fdd3796	1.7282588
81	0xbd8faff4	-0.07015982
82	0x3f311544	0.69173074
83	0xbf02b4dc	-0.5105722
84	0x3fd9d062	1.7016718
85	0x3fecaff1	1.8491193
86	0x3e0f9f84	0.14025694
87	0x3ff8591f	1.9402198
88	0x3e8843e1	0.26614287
89	0x4046ac8f	3.1042821
90	0x3fef7da6	1.871022
91	0xbed4686e	-0.41485924
92	0xbf5d13e8	-0.863585
93	0x3f2797c1	0.65465933
94	0x3f8d1aca	1.10238
95	0x3ff45f2b	1.9091543
96	0x3eae1aca	0.34004813
97	0xc0120856	-2.2817588
98	0xbfd61d9e	-1.6727788
99	0x3ff052f6	1.8775318
100	0x4024bb37	2.5739267
101	0x3f7993ae	0.97490966
102	0x3f970348	1.1797876
103	0x3fcd6240	1.6045609
104	0x4082fb69	4.0931897
105	0x402ad436	2.6692023
106	0x3e23f0d3	0.16009836
107	0xc059cdf1	-3.4031947
108	0x3f875889	1.0573894
109	0xbfd8ad9e	-1.6927984
110	0xbe888fd0	-0.2667222
111	0x40111e4a	2.2674737
112	0xbf81a408	-1.0128183
113	0x400724fe	2.1116328
114	0x3fe802a7	1.812581
115	0x3fc906e3	1.5705227
116	0x40196ccc	2.3972654
117	0x3f6527e8	0.8951402
118	0x3e6f2c7f	0.23356818
119	0x3feac4ff	1.8341368
120	0x4065a13a	3.5879655
121	0xbf4411de	-0.76589763
122	0x3e94695a	0.28986627
123	0xbf968ef2	-1.1762373
124	0x3f43609f	0.7631931
125	0x3f6dc188	0.9287343
126	0xbe05ed11	-0.13078715
127	0x3fddccb7	1.7328099
128	0x3fb95dd3	1.4481758
129	0x3fa5f580	1.2965546
130	0xbf87c2c6	-1.0606315
131	0xc041e0ee	-3.0293536
132	0x3ff35595	1.9010493
133	0xc032e855	-2.7954304
134	0xbcfdd508	-0.03098537
135	0x3ee2b591	0.4427915
136	0xbfbee86f	-1.4914683
137	0xbfd1b233	-1.6382507
138	0xbdf1607f	-0.11785983
139	0xc023b7c5	-2.5580914
140	0xbf5ef585	-0.87093383
141	0x3f347329	0.7048822
142	0x3e43e571	0.19130494
143	0x3f935ded	1.1513039
144	0xbfab3e5f	-1.3378409
145	0x407893de	3.884025
146	0x3fbe5712	1.4870322
147	0x3f9f67f8	1.2453604
148	0xc04aee34	-3.1707888
149	0x3eefb78b	0.4681972
150	0xbe4bf4cc	-0.19917601
151	0x3da32340	0.07965708
152	0xbffbb4d4	-1.9664559
153	0xc03b6d4d	-2.9285462
154	0x3f863f69	1.0488101
155	0x3f9f36ab	1.2438558
156	0x3ed2a148	0.41138673
157	0x403bf24b	2.9366634
158	0x4084d5e1	4.1511083
159	0x4002aec0	2.041916
160	0xc03de15b	-2.9668796
161	0x3ffefa32	1.9920104
162	0xbff991d4	-1.9497628
163	0x402fc3c5	2.7463238
164	0x3ea5f7e9	0.32415703
165	0xbfdeeabe	-1.7415388
166	0xbe681c39	-0.22667016
167	0x3fe3d650	1.7799778
168	0xbfee55f7	-1.8619984
169	0x3fcf686b	1.6203741
170	0x3f26f665	0.6521972
171	0xbfd62bba	-1.6732094
172	0xbf4190ec	-0.7561176
173	0xc01ffbd2	-2.499745
174	0x3f8a2122	1.0791361
175	0x3e76e5ff	0.24111174
176	0x3de194ef	0.11014735
177	0xbfa75329	-1.3072253
178	0xbf67fae1	-0.90617186
179	0xbc4a39ba	-0.012342865
180	0x3f667167	0.9001679
181	0xbf63ad37	-0.8893618
182	0xc0165618	-2.3490047
183	0x3fb6319e	1.4233892
184	0x3ec1bab1	0.37837747
185	0x3f07816c	0.5293186
186	0x3f4bb5ae	0.79574096
187	0x3fdbdbf3	1.7176498
188	0xbfe83ff9	-1.8144523
189	0x3f59484f	0.8487596
190	0xc008a6fd	-2.1351922
191	0xbe964d56	-0.29355878
192	0x401f4499	2.4885619
193	0xc00060c6	-2.0059066
194	0x3e44edcb	0.19231336
195	0x3fc1bef1	1.5136396
196	0x3ff2596f	1.8933543
197	0x3f97d6d3	1.1862434
198	0xc02d1356	-2.7043052
199	0x403d6213	2.959111
200	0xbff0c402	-1.8809817
201	0x401f62da	2.4904084
202	0x3f899433	1.0748352
203	0x40377060	2.8662338
204	0xc0009de7	-2.0096376
205	0x3ff3ae2f	1.9037532
206	0xbff1376c	-1.8845038
207	0xbf88ff02	-1.0702822
208	0xbf157402	-0.5838014
209	0xbf0c9b14	-0.5492413
210	0xbfde356a	-1.7360051
211	0xbfdde87e	-1.7336576
212	0xbef76f5f	-0.48327157
213	0xbfd1b85e	-1.6384389
214	0x40053533	2.081372
215	0xbfd7fe96	-1.6874568
216	0x3f666de2	0.9001142
217	0x40166b00	2.3502808
218	0x3fadc6ed	1.3576332
219	0x405ccc71	3.449978
220	0xbfe9ddd3	-1.827082
221	0x3ed47a82	0.41499716
222	0x3fc2bf94	1.5214715
223	0x3e90ec1e	0.28305143
224	0x3ca6c438	0.020357236
225	0xbe9b2ca2	-0.3030749
226	0x3fee3cd9	1.8612319
227	0x3fb10535	1.3829714
228	0xbfbd18db	-1.477321
229	0x3f866621	1.0499917
230	0x3fd41a90	1.6570606
231	0xbf2a1b88	-0.6644826
232	0x3fb4c9b1	1.4124051
233	0xbeeed8c9	-0.4664977
234	0xbfc128d9	-1.5090591
235	0xbfb92e7f	-1.4467314
236	0xbf878569	-1.0587589
237	0x3fa12a76	1.2591083
238	0xc00a7289	-2.1632407
239	0x3f0ccd60	0.5500088
240	0x3f85a7a2	1.0441782
241	0xc05c1aa8	-3.439127
242	0xbfbad9a5	-1.459767
243	0xbe1be8ab	-0.15225475
244	0xbf403ba6	-0.75091016
245	0xbf5660aa	-0.8374125
246	0xbfb39ee1	-1.4032861
247	0xc01eef66	-2.4833617
248	0x3fb350c6	1.4009025
249	0xbfa8c8c0	-1.3186264
250	0x3fc2a259	1.5205795
251	0x3f03f79f	0.51549715
252	0xbf8e8f73	-1.1137527
253	0x3efc02d1	0.492209
254	0xbfbd6988	-1.479783
255	0x3f957d3b	1.1678842

fc3.bias f4 [128]
0	0x3e9ca0d8	0.30591464
1	0xbf13f559	-0.57796246
2	0xbdade7ce	-0.08491479
3	0xbf990586	-1.1954811
4	0xbe12475b	-0.14285032
5	0x3d94b525	0.07261113
6	0xbee0b7c9	-0.43890217
7	0xbd84170f	-0.064497106
8	0xbd5c4584	-0.053777233
9	0xbe749705	-0.23885734
10	0x3e5efb3d	0.21775527
11	0x3fc46c9b	1.5345644
12	0xbf05203c	-0.5200231
13	0x3f9d394b	1.228311
14	0x3fa55407	1.2916268
15	0x3ee1436c	0.4399675
16	0xbc7d9edb	-0.015479769
17	0x3d61c351	0.05511791
18	0x3e2c0f9e	0.16802832
19	0x3f94336a	1.157819
20	0xbfe47b96	-1.7850215
21	0xbe956551	-0.2917886
22	0x3f593e1c	0.84860396
23	0xbf9a7615	-1.2067286
24	0xbef189ac	-0.47175348
25	0xbe92b03a	-0.28650075
26	0x3d59c3f4	0.05316539
27	0x3fb64478	1.4239645
28	0xbdc682ed	-0.09692941
29	0x3e83b8a6	0.25726813
30	0x3ec0a97c	0.37629306
31	0x3fb80015	1.4375025
32	0xbe944400	-0.2895813
33	0xbee22151	-0.44166043
34	0xbeef8e97	-0.46788475
35	0x3eb9a5d0	0.36259317
36	0x3f48b541	0.7840157
37	0xbf2b3c39	-0.6688877
38	0xbe7fa9e5	-0.24967153
39	0x3fb6b06d	1.4272591
40	0x3fbb91ed	1.4653908
41	0xbe067f5f	-0.13134526
42	0xbf6162e2	-0.8804151
43	0xbedf924a	-0.43666297
44	0xbf0c1adc	-0.54728484
45	0x3fb09fc3	1.3798755
46	0xbecd0ff0	-0.40051222
47	0x3f94b781	1.1618501
48	0xbdb8d559	-0.09025068
49	0x3fbfe879	1.499282
50	0xbd484ed1	-0.04890329
51	0xbe988994	-0.29792464
52	0xbf08b73f	-0.5340461
53	0xbe2e0b54	-0.16996509
54	0xbeb57ce7	-0.35446855
55	0x3fbefc95	1.4920832
56	0x3fb920a2	1.4463084
57	0xbe036d6a	-0.12834707
58	0x3e3f7d54	0.18700153
59	0xbdca6432	-0.09882392
60	0x3e9fdb89	0.3122218
61	0x3da8a762	0.08235051
62	0xbe099045	-0.1343394
63	0xbecee487	-0.40408728
64	0xc01057ed	-2.2553666
65	0x3fa42fe4	1.2827115
66	0xbe8b0b0a	-0.2715686
67	0xbee02815	-0.4378058
68	0x3fcf4936	1.6194217
69	0x3f2f6071	0.6850653
70	0x3e9f875e	0.31157964
71	0x3ea86349	0.3288825
72	0x3fa44417	1.2833279
73	0xbfafc670	-1.3732433
74	0x3d93b2e6	0.072118565
75	0x3fa78d1e	1.308994
76	0x3df85d67	0.1212719
77	0x3f4725fa	0.7779232
78	0xbeab7bb0	-0.33492804
79	0xbea645a6	-0.32475013
80	0xbe91538d	-0.28384057
81	0x3dbec0b7	0.09314101
82	0xbf14ced7	-0.5812811
83	0xbf198e64	-0.59982896
84	0xbda96f63	-0.082731985
85	0xbe6bc726	-0.23025188
86	0x3fac42fc	1.3457942
87	0xbd29cf7a	-0.04145763
88	0xbdd0ba87	-0.10191827
89	0xbf0444a9	-0.5166727
90	0xbe81cc0d	-0.2535099
91	0xbf91d875	-1.1394182
92	0x3de6678d	0.112502195
93	0xbc373d50	-0.011184052
94	0x3f3a51ba	0.72780955
95	0xbe66e7c5	-0.2254935
96	0xbc1887cf	-0.009309723
97	0xbec90694	-0.3926283
98	0xbdf13f50	-0.11779654
99	0x3f854e29	1.0414478
100	0xbde321b2	-0.11090411
101	0x3f92b05a	1.1460068
102	0xbf7fc463	-0.9990904
103	0x3d197091	0.037460867
104	0xbef1f7ca	-0.4725936
105	0x3fbb0f87	1.4614114
106	0xbe56539d	-0.20930333
107	0xbbcee76d	-0.006314209
108	0x3b5d7088	0.0033788998
109	0x3faebf36	1.3652103
110	0x3f98131d	1.1880833
111	0xbdd02e44	-0.101650745
112	0xbda64264	-0.08118132
113	0xbea0727c	-0.31337345
114	0x3fa8daf7	1.3191823
115	0x3e1b1589	0.15144934
116	0x3fab7962	1.3396418
117	0x3fa0b189	1.255418
118	0x3fa69c61	1.3016473
119	0x3fa5134a	1.2896512
120	0xbbc542a7	-0.0060199085
121	0xc0185058	-2.3799038
122	0x3fab4b38	1.338233
123	0xbe4abf6d	-0.19799586
124	0x3fc7024c	1.5547576
125	0xbed42d54	-0.41440833
126	0x3fa8d77e	1.3190763
127	0x3c0d7840	0.008634627

out.weight f4 [7, 128]
0	0x402e8480	2.7268372
1	0xbf881ad6	-1.063319
2	0xbf1ffdd5	-0.6249669
3	0xbfe060c8	-1.7529535
4	0xc01ae075	-2.4199498
5	0xc0f130dc	-7.5372143
6	0x403af0e3	2.9209526
7	0xc0affe74	-5.499811
8	0xc0ac5c35	-5.3862557
9	0xc1056f9d	-8.339749
10	0xbf17e24d	-0.5932968
11	0x3fd8544f	1.6900729
12	0xc1837ca4	-16.43586
13	0x3fb3a71d	1.4035374
14	0x3f660bd1	0.8986178
15	0x3f6475a7	0.89242023
16	0x3fd5cf9a	1.670398
17	0xc02847af	-2.6293752
18	0xc075d59a	-3.8411622
19	0x3fadb573	1.3570999
20	0xbfafa896	-1.3723323
21	0x3fb2312c	1.3921256
22	0x3f60b1ff	0.877716
23	0xbda23615	-0.079204716
24	0x4046635d	3.0998147
25	0xc02a530c	-2.6613188
26	0xc0a7d6d9	-5.2449765
27	0x3f383395	0.7195371
28	0x3f4dee72	0.80441964
29	0x40ccd2cd	6.4007325
30	0x40c120d7	6.035259
31	0x3f4d37c6	0.8016323
32	0x3eb74089	0.35791424
33	0x3fb200e4	1.3906522
34	0xbf714a6f	-0.942542
35	0x3f946a3c	1.159492
36	0x3fc84fd3	1.564936
37	0xbf5b6286	-0.8569721
38	0xbec6d9a6	-0.38837928
39	0x3fba376c	1.4548163
40	0x3fc5ff80	1.5468597
41	0x3d885321	0.066564806
42	0x40b3fdda	5.6247377
43	0x406c7a9f	3.6949842
44	0xbff4859a	-1.9103272
45	0x3f87260c	1.0558486
46	0xc0a73b57	-5.2259936
47	0x3f9dc709	1.2326366
48	0xc0c57fa6	-6.171832
49	0x3fca2bf5	1.5794665
50	0xc078ddfa	-3.8885484
51	0xc0d0d076	-6.525447
52	0xc09fdcee	-4.995719
53	0xbfed0630	-1.8517513
54	0xc04d877e	-3.2113948
55	0x3f43b2d8	0.7644477
56	0x3fc28c18	1.5199003
57	0xc06df375	-3.7179844
58	0xbf09ae27	-0.5378136
59	0xbe25650c	-0.16151828
60	0xbfafcd2d	-1.373449
61	0xc027504c	-2.614276
62	0xc0819d3e	-4.0504446
63	0x409d255c	4.9108105
64	0x3d61e093	0.05514581
65	0x3f8a02a2	1.0782053
66	0xc0599066	-3.3994384
67	0xc0da12f8	-6.8148155
68	0x3f77f7bd	0.96862394
69	0x4001c1ea	2.0274606
70	0x40703f38	3.7538586
71	0x3f2423f8	0.64117384
72	0x3f903a44	1.1267781
73	0x3fbb61f1	1.4639264
74	0x407bcf1d	3.9345162
75	0x3fc86780	1.5656586
76	0xc0114175	-2.2696202
77	0x3f938623	1.152531
78	0xc1139794	-9.224506
79	0xbe0d6fe0	-0.13812208
80	0x41029b43	8.162906
81	0x40957211	4.670174
82	0x3f23b2e7	0.6394486
83	0x40a8d5a1	5.2760777
84	0x3fa582a3	1.2930492
85	0x3f540f4b	0.82835835
86	0x3f2e1244	0.6799662
87	0x4096d5ed	4.713614
88	0x40004f84	2.0048532
89	0xc18bf885	-17.496347
90	0xbfa9477c	-1.322494
91	0x40bbea14	5.872324
92	0x3f8c0d63	1.0941585
93	0xc02ac8a2	-2.6684957
94	0x3f8228f6	1.016875
95	0x3fbb2af3	1.4622482
96	0x3d9f5dc8	0.07781559
97	0xbfa817e7	-1.3132294
98	0xc039135a	-2.8918061
99	0x3fab8d4e	1.3402498
100	0x4073e199	3.8106444
101	0x3f1d1a0c	0.6136787
102	0x409a65b4	4.824915
103	0xc0b24eac	-5.5721035
104	0x4017688d	2.3657563
105	0x3f96362c	1.1735282
106	0x4091eb7c	4.5599957
107	0xc0f0fc58	-7.5308037
108	0x40005dcf	2.0057256
109	0x3f24ee9d	0.64426595
110	0x3fd25814	1.6433129
111	0x402ad3f5	2.6691868
112	0xc0bf1f43	-5.972566
113	0xc05555fb	-3.3333728
114	0x3fc75b70	1.557478
115	0xc03a50b8	-2.9111767
116	0x3f54984c	0.83044887
117	0x3feb7556	1.8395183
118	0x3fcae5b0	1.5851345
119	0x3fad82f4	1.3555589
120	0x3f7e902c	0.9943874
121	0x3fe03ab7	1.7517918
122	0x3eca6ecb	0.39537653
123	0x3ffbe11c	1.9678073
124	0x3f753e87	0.95798534
125	0xc184afe3	-16.585882
126	0x3f738c2e	0.9513577
127	0x40440172	3.0625882
128	0x3ff3ac6c	1.9036994
129	0x3e465111	0.19366862
130	0xc1039d26	-8.225866
131	0xc024947e	-2.5715632
132	0xbfa67862	-1.3005488
133	0xbf0b69c2	-0.5445825
134	0x40a8f27e	5.279601
135	0xc068059d	-3.6253426
136	0xc0c71b98	-6.2221184
137	0x40464db3	3.0984924
138	0xc0f56a8e	-7.669257
139	0x3f932a46	1.1497276
140	0x4003e0b9	2.060591
141	0x3f926727	1.143773
142	0x3fc97ff1	1.574217
143	0xbd924a8b	-0.07143124
144	0x3f6e6c0d	0.9313362
145	0xc03f0ccb	-2.9851558
146	0xc0c150f5	-6.0411325
147	0x3f077f92	0.5292903
148	0xbfd3a078	-1.6533346
149	0x3f3a7c3d	0.7284582
150	0x3f308d10	0.68965244
151	0x40f358bf	7.6045833
152	0x3f36b561	0.7137051
153	0xc08adcae	-4.3394384
154	0xc092f94e	-4.5929327
155	0x3fefe322	1.874119
156	0x3f7d5840	0.98962784
157	0xbf00ec7e	-0.5036086
158	0x411cfc98	9.811668
159	0x3f6a60ab	0.91553754
160	0xbee0ad0d	-0.43882027
161	0x409b62db	4.8558173
162	0xbf15773f	-0.5838508
163	0xc0f4fefa	-7.656125
164	0xc02ee197	-2.732519
165	0xc0ca9d67	-6.331714
166	0x3da1948e	0.07889663
167	0x3fe2a2f9	1.7705985
168	0x3fad339c	1.3531375
169	0x3f2acfcc	0.6672332
170	0x408682b7	4.2034564
171	0x40c075ac	6.0143642
172	0xbf881e6f	-1.0634288
173	0x3fc0fa4f	1.5076388
174	0x3f8e8d54	1.113688
175	0x3fadb20f	1.3569964
176	0xc0bbce67	-5.8689456
177	0x3f26fc4a	0.6522871
178	0xc08ea053	-4.457071
179	0xc09d6a25	-4.919207
180	0xbf15390a	-0.5829016
181	0xc12f7ff1	-10.968736
182	0xc09e454a	-4.945958
183	0x3f76bc73	0.963813
184	0x3fe7a716	1.8097866
185	0xc018dcda	-2.3884797
186	0xc0aed867	-5.4639163
187	0xc153b878	-13.232536
188	0xc01407bd	-2.3129723
189	0x40a09e24	5.0193043
190	0xc0db81a2	-6.8595743
191	0x3f96772f	1.1755122
192	0xc01eb926	-2.4800506
193	0x3efacbd9	0.48983648
194	0xc07cddfa	-3.9510484
195	0xc0bec951	-5.9620748
196	0x3fca638f	1.5811633
197	0xc02096d7	-2.5092065
198	0x406c591b	3.6929386
199	0xbfe0dafb	-1.7566828
200	0x3f805ad2	1.0027716
201	0x4089f428	4.311054
202	0x40b057ee	5.5107336
203	0x3f199a9f	0.6000156
204	0xc0e301a5	-7.0939507
205	0x4007601d	2.1152413
206	0x3fa41973	1.2820266
207	0x3f750769	0.9571443
208	0x40d5f937	6.6866717
209	0xc13163d0	-11.086868
210	0x40151082	2.3291326
211	0x40abada5	5.364947
212	0x40cb462f	6.3523173
213	0x3f9e1123	1.234898
214	0x3fab083e	1.336189
215	0x40876a51	4.231728
216	0xbf1d8647	-0.61533016
217	0x3fef2490	1.8683033
218	0xbf60a2c3	-0.87748355
219	0xc01c490a	-2.441958
220	0xc00994fb	-2.149718
221	0x405a219d	3.4083016
222	0x406b2672	3.6742215
223	0x40d0ce12	6.525155
224	0xbd7c513c	-0.06160091
225	0x4088efc3	4.279268
226	0xbf046fb2	-0.51732934
227	0x3fac4b8d	1.3460556
228	0x4056ce72	3.3563504
229	0x3f3bebca	0.7340666
230	0x40b5afe3	5.6777205
231	0xc10a1abf	-8.63153
232	0x3f81951e	1.0123632
233	0x3fd0ec16	1.6322048
234	0x402e9f6f	2.728481
235	0xc0dee8e0	-6.965927
236	0xc0103bfe	-2.2536616
237	0x3f9be112	1.2178061
238	0x3f751e5b	0.95749444
239	0x4060dd19	3.5134947
240	0xc0a48c73	-5.1421447
241	0xc0a0d9c8	-5.0265846
242	0x3f0e2ead	0.5553997
243	0xc121186d	-10.068463
244	0x3fa94385	1.322373
245	0x3e2aa11c	0.16663021
246	0x3f76221d	0.961458
247	0x3fc2cdd7	1.5219067
248	0x3e2d1f36	0.16906437
249	0x40268e5f	2.6024396
250	0x3f846f8a	1.0346539
251	0xc141d207	-12.113776
252	0x40001450	2.0012398
253	0x3e9d5d4f	0.3073525
254	0x3f9bbb65	1.2166563
255	0x3ffa2461	1.9542352

out.bias f4 [7]
0	0x3f662499	0.89899594
1	0x3f629659	0.8851066
2	0x3e2cd220	0.16877031
3	0x3ff86fa5	1.9409071
4	0x3f35bb2b	0.7098872
5	0x3fb14fbd	1.3852459
6	0xbe15e502	-0.14638141
